crypto-predict/backend/app/ml_models/lstm_model.pt (torch, 236661 bytes, 11 tensors)

lstm.weight_ih_l0 f4 [256, 14]
0	0xbd3d3e21	-0.04620183
1	0x3d2ca3cc	0.042148396
2	0x3cc8fb07	0.024533762
3	0xbc749f45	-0.014930551
4	0xbbdf965f	-0.0068233456
5	0xbe0883fd	-0.133316
6	0xbdec1b0f	-0.115285985
7	0xbde6ed79	-0.11275763
8	0x3d8bf9f2	0.06834783
9	0xbead8033	-0.3388687
10	0xbd3ce297	-0.04611453
11	0x3a8c681b	0.0010712178
12	0xbdd8ff4f	-0.10595571
13	0x3d4e10ae	0.050308876
14	0x3c256abd	0.010096249
15	0xbdbc68ec	-0.091997
16	0x3c7848e6	0.015154099
17	0xbd55963c	-0.052145228
18	0x3dc36bb9	0.09542031
19	0x3db0f4c9	0.08640439
20	0xbe37ee97	-0.17962109
21	0x3e53254a	0.20619693
22	0x3e0c2443	0.13685708
23	0xbd8e1626	-0.06937818
24	0x3d9f2a7c	0.07771775
25	0x3d22e226	0.039766453
26	0xbde85b93	-0.113455914
27	0x3d1598e0	0.036522746
28	0x3de54041	0.11193896
29	0xbc461ee7	-0.012092329
30	0xbb9ab6e5	-0.0047215098
31	0xbcbc6933	-0.022999382
32	0x3e0fe839	0.1405343
33	0x3d9e9520	0.07743287
34	0x3df67ee5	0.12035922
35	0x3bc1b7b9	0.005911794
36	0x3e265c7a	0.16246215
37	0x3e3aec38	0.18254173
38	0x3e2d6f84	0.16937071
39	0x3d0803e0	0.03320682
40	0xbd618428	-0.055057675
41	0x3a9797f9	0.0011565677
42	0x3cb40747	0.021976126
43	0xbcbe4794	-0.02322749
44	0xbd64690a	-0.055764236
45	0xbc1ebf40	-0.009689152
46	0x3d9bca77	0.076069765
47	0xbe260ffe	-0.16217038
48	0xbe452b8b	-0.19254892
49	0xbe66e948	-0.22549927
50	0xbac29b8c	-0.0014847382
51	0xbe017097	-0.12640606
52	0xbe2901e0	-0.16504622
53	0xbd822419	-0.06354541
54	0xbddab2c5	-0.10678629
55	0x3d3913b6	0.045184813
56	0xbd3fe153	-0.046845745
57	0xbd222763	-0.039588343
58	0x3d77adde	0.060468547
59	0xbe227693	-0.15865545
60	0xbe2b6154	-0.16736346
61	0x3e206c03	0.15666203
62	0xbe35d5a2	-0.17757276
63	0x3e01fb02	0.12693408
64	0x3e7801aa	0.24219385
65	0x3e67025f	0.22559498
66	0xbd8c34f9	-0.06846041
67	0x3d738f42	0.059462793
68	0xbdba7827	-0.091049485
69	0x3cfbb8db	0.030727794
70	0xbdb205b0	-0.08692491
71	0x3d7b4a01	0.061349872
72	0xbda6c3e5	-0.08142833
73	0x3d74b0f0	0.059739053
74	0x3cb443eb	0.022005042
75	0x3e525647	0.20540725
76	0xbe65afaa	-0.22430292
77	0xbad129bb	-0.0015957871
78	0x3e032312	0.12806347
79	0x3d12ebe5	0.035869498
80	0xbe265a39	-0.16245355
81	0x3e8950f6	0.2681958
82	0x3dc210ea	0.09475882
83	0x3e4c4e97	0.19951855
84	0x3d8d5d40	0.06902552
85	0xbc52ff91	-0.012878315
86	0x3d541097	0.051773634
87	0xbd96b3af	-0.07358491
88	0x3d7ce52e	0.061742
89	0x3db3ccd4	0.08779302
90	0xbe394d63	-0.18095927
91	0xbbce64b6	-0.006298627
92	0x3da07741	0.07835246
93	0xbcf9d486	-0.030496847
94	0xbd914033	-0.07092323
95	0x3d28dfcc	0.041229054
96	0x3e46acd0	0.1940186
97	0x3d5d5e52	0.05404503
98	0xbde3e696	-0.11127965
99	0x3ca202a5	0.019776652
100	0x3d1fcca9	0.03901354
101	0x3d91bf72	0.071165934
102	0xbdb74ac6	-0.08949809
103	0xbddf4384	-0.109015495
104	0x3e0d7416	0.13813815
105	0xbe1076e7	-0.14107858
106	0xbd362b94	-0.044475153
107	0xbda5f861	-0.08104015
108	0x3dcd5245	0.10025457
109	0xbe6995fd	-0.22811122
110	0xbe6c40dc	-0.23071617
111	0x3dc38663	0.095471166
112	0xbb1bfd2c	-0.0023802025
113	0x3d87beb2	0.06628169
114	0x3d998ba2	0.07497336
115	0xbda4a3e3	-0.080390714
116	0x3e22662a	0.15859285
117	0x3e951a27	0.29121515
118	0x3ed6eb63	0.4197646
119	0x3f02ac80	0.51044464
120	0x3d901784	0.07035735
121	0xbd7e75d1	-0.062124077
122	0x3ebab724	0.3646785
123	0xbe2f050f	-0.17091773
124	0xbe2c2d5e	-0.16814181
125	0xbcd4ad34	-0.025961496
126	0xbd0bef21	-0.034163598
127	0x3d7bd7b5	0.06148501
128	0x3d1fccde	0.039013736
129	0xbd94dda6	-0.072688386
130	0x3c599f7d	0.013282654
131	0x3e0dfd4f	0.13866161
132	0x3dca6a36	0.098835394
133	0x3e16996d	0.14706965
134	0x3e8b4975	0.2720448
135	0xbdc9c8c3	-0.098527454
136	0x3d253a8f	0.04033905
137	0xbdfcbe15	-0.12340943
138	0xbe568a80	-0.20951271
139	0x3d427ff0	0.047485292
140	0x3dbadedb	0.091245376
141	0x3d49fcdd	0.049313415
142	0x3cf1cbf6	0.029516201
143	0x3aa30d45	0.0012439868
144	0x3e0440e6	0.12915382
145	0x3d938aec	0.072042316
146	0x3d99f28d	0.07516966
147	0x3e2d38a3	0.16916136
148	0x3e19bb20	0.15012789
149	0xbe367573	-0.17818241
150	0x3d47ebc2	0.04880882
151	0x3e8e80f4	0.27832758
152	0xbe4710ad	-0.19439955
153	0x3ddebb3b	0.10875555
154	0xbdb3652e	-0.08759533
155	0x3be034ee	0.006842247
156	0xbd746b21	-0.05967248
157	0xbc965d38	-0.018354997
158	0xbe64a1f7	-0.2232741
159	0xbd715deb	-0.058927458
160	0x3d9ef3d2	0.07761349
161	0xbd5c4137	-0.05377313
162	0xbe410280	-0.1884861
163	0x3e83b68e	0.25725216
164	0xbe10465e	-0.14089343
165	0xbe7853f6	-0.24250779
166	0x3e9cd859	0.3063381
167	0x3d075be3	0.033046614
168	0xbddf8d77	-0.10915654
169	0xbe1755b5	-0.14778788
170	0x3d7f6f3b	0.062361937
171	0x3d5cab0c	0.05387406
172	0xbcbdd142	-0.023171071
173	0x3cb15c4a	0.021650452
174	0xbe15cf4f	-0.14629863
175	0x3cb07a7e	0.021542784
176	0x3e413f13	0.18871717
177	0xbe5eaa30	-0.21744609
178	0x3e1143c5	0.14186008
179	0x3cefd17f	0.0292747
180	0xbe865af5	-0.2624127
181	0xbd466682	-0.048437603
182	0x3d633bbc	0.05547689
183	0x3d2fcf7b	0.04292248
184	0xbcd54071	-0.026031705
185	0x3ca0babb	0.01962029
186	0x3e22fc66	0.15916595
187	0x3eae32b7	0.34023067
188	0xbd2b5314	-0.041827276
189	0x3d546912	0.051858015
190	0x3eb5307b	0.3538855
191	0x3e90f167	0.28309175
192	0xbe353b2e	-0.17698357
193	0x3b6464f4	0.0034850212
194	0x3e7a5f89	0.24450506
195	0xbce652d5	-0.02811567
196	0x3d938ff2	0.0720519
197	0xbdac73fc	-0.0842056
198	0x3d67cc0d	0.056591082
199	0xbca6d676	-0.020365935
200	0xbcb61929	-0.022228794
201	0x3e011972	0.12607363
202	0x3d9862f4	0.07440749
203	0x3d6e899e	0.05823671
204	0xbd81308b	-0.06308087
205	0x3eb9098a	0.3614009
206	0xbd7a8516	-0.061162077
207	0xbd05104d	-0.03248625
208	0x3e2ccd94	0.16875297
209	0xbdb534fa	-0.08847995
210	0x3d34867e	0.044073574
211	0x3d913f6d	0.07092176
212	0xbc3d5071	-0.011554823
213	0xbd13280a	-0.035926856
214	0x3c184d06	0.009295708
215	0x3dea53fc	0.114418
216	0x3e398cea	0.1812016
217	0x3e8e4020	0.27783298
218	0xbd89783b	-0.06712385
219	0x3da1f773	0.07908525
220	0xbd9188be	-0.071061596
221	0xbd59e00d	-0.053192187
222	0xbd60b7a8	-0.05486265
223	0xbd92253d	-0.07136009
224	0x3bcdf244	0.006284984
225	0xbd0adf87	-0.03390458
226	0xbdd82854	-0.10554567
227	0x3d72d626	0.05928626
228	0xbd9e6f1f	-0.077360384
229	0x3e606b13	0.21915846
230	0x3e7745cf	0.24147724
231	0x3e8ab79b	0.27093205
232	0x3e01743f	0.12642
233	0xbd598aa9	-0.053110752
234	0x3e36a307	0.17835627
235	0xbd19b784	-0.03752853
236	0x3cf71ade	0.030164178
237	0x3eaa4f52	0.33263642
238	0xbc5aa9aa	-0.013346115
239	0x3c70529d	0.014668134
240	0xbdeacba7	-0.11464625
241	0x3d92d86e	0.07170187
242	0xbd17bf2a	-0.037047543
243	0xbe66df5f	-0.22546147
244	0xbd57f856	-0.052727066
245	0xbed84ef9	-0.4224775
246	0xbe8a003d	-0.26953307
247	0xbda59858	-0.08085698
248	0xbe006fdd	-0.12542672
249	0xbe57a0f4	-0.21057492
250	0x3b32b0b8	0.0027265977
251	0x3cd15c75	0.025556782
252	0x3df9bf26	0.12194662
253	0x3bb1bccf	0.005424119
254	0xbc47fff0	-0.012207016
255	0xbd378b20	-0.044810414

lstm.weight_hh_l0 f4 [256, 64]
0	0xbebf37e2	-0.37347323
1	0x3e2b703c	0.16742033
2	0xbebba145	-0.36646476
3	0x3e853652	0.26018006
4	0xbcc8331c	-0.024438433
5	0x3e412bf3	0.18864422
6	0x3eabcf01	0.3355637
7	0x3c3213c6	0.010868972
8	0xbe4981d2	-0.19678429
9	0xbe073acd	-0.13206024
10	0x3e47e3b4	0.19520456
11	0x3ef0119f	0.46888444
12	0x3dc41373	0.09574022
13	0xbe04b308	-0.1295892
14	0xbe549537	-0.20760046
15	0x3e9c81d5	0.30567804
16	0x3e0da51b	0.13832514
17	0x3d7fe1ed	0.06247132
18	0xbe1f8ea8	-0.15581763
19	0x3dabf9dc	0.08397266
20	0xbe09e0f2	-0.13464716
21	0x3d7b000b	0.061279338
22	0x3e3aaef6	0.18230805
23	0xbe8d7956	-0.27631634
24	0x3ea3ab70	0.31966734
25	0xbeb25d37	-0.34836742
26	0x3d419f9d	0.04727136
27	0x3dfeb6a3	0.12437179
28	0xbe53e585	-0.20693024
29	0x3e41a874	0.18911916
30	0x3cbe5bf1	0.0232372
31	0x3ca3972e	0.019969549
32	0xbc89dc83	-0.016828781
33	0x3da79a2a	0.08183701
34	0xbd4d2ddb	-0.05009256
35	0xbdcfe75c	-0.1015155
36	0xbe8f9d04	-0.2804948
37	0xbd81715d	-0.063204505
38	0xbe4f0aca	-0.2021896
39	0x3e134461	0.14381553
40	0xbc8378a0	-0.01604873
41	0x3eed3050	0.46325922
42	0xbe29ffe5	-0.16601522
43	0x3e16ede1	0.14739181
44	0xbde5b6e1	-0.11216522
45	0x3dca24e2	0.09870316
46	0xbeba3e0a	-0.36375457
47	0xbe23b454	-0.15986758
48	0x3d7a7cc5	0.061154146
49	0x3cf6ce15	0.030127564
50	0x3da8d3ea	0.082435444
51	0xbe830847	-0.25592253
52	0xbe9c0296	-0.30470723
53	0x3eb902dd	0.36134997
54	0xbe532883	-0.20620923
55	0x3e1dc9f2	0.15409067
56	0xbe08f0a3	-0.13373046
57	0x3e0e3dc8	0.13890755
58	0x3e405dae	0.18785736
59	0xbccc39cd	-0.024929905
60	0x3e5cf4f5	0.21577819
61	0xbe30ce0e	-0.17266104
62	0xbe8fc11f	-0.28077027
63	0xbe455e27	-0.19274198
64	0x3e878a5f	0.26472756
65	0xbe1eb641	-0.15499212
66	0x3e8dad8c	0.27671468
67	0xbe16a5ec	-0.14711732
68	0x3d90d8cd	0.070726015
69	0xbe69aa30	-0.22818828
70	0xbdb15d95	-0.086604275
71	0xbceac0b8	-0.028656349
72	0xbe80efa3	-0.25182828
73	0xbf00baaf	-0.50284857
74	0x3d47bcca	0.048764028
75	0x3cb44f39	0.022010433
76	0x3dbde36f	0.09271895
77	0xbd788d6f	-0.060681757
78	0x3ab64c14	0.0013908171
79	0x3d9a746a	0.075417355
80	0x3e1c6cb9	0.1527585
81	0xbe113b37	-0.14182745
82	0x3cdc55d6	0.026896399
83	0x3aedc688	0.0018140832
84	0x3e811abe	0.25215715
85	0x3d9c85e8	0.07642728
86	0x3d2fa0fd	0.04287814
87	0xbedb8fab	-0.42883047
88	0x3d6b758e	0.057485156
89	0xbd27d0fd	-0.04097079
90	0xbdd94cc2	-0.106103435
91	0xbe2d052d	-0.16896506
92	0xbdf1fc50	-0.11815703
93	0x3dbd4087	0.09240823
94	0xbe5c6682	-0.21523479
95	0x3dce3c56	0.10070102
96	0x3e9a72c7	0.30165693
97	0xbe8897f3	-0.26678428
98	0xbc7ca302	-0.0154197235
99	0xbbb2eca8	-0.0054603405
100	0xbe32c556	-0.1745809
101	0x3e015c57	0.12632881
102	0x3df1da03	0.118091606
103	0xbdab88f9	-0.08375735
104	0x3dd8689f	0.1056683
105	0xbd54ce2c	-0.051954433
106	0x3db85585	0.090006866
107	0x3cc5a101	0.024124624
108	0xbdd9fe11	-0.106441624
109	0x3cdcb8da	0.026943613
110	0xbcf0c71d	-0.02939182
111	0xbc049880	-0.008092999
112	0xbe3df6e2	-0.1855121
113	0x3d966075	0.073426165
114	0xbea7e550	-0.3279214
115	0xbd964b6c	-0.07338604
116	0xbc0319ec	-0.008001786
117	0x3e6090da	0.21930256
118	0xbe9b287d	-0.30304328
119	0x3e84bf78	0.2592733
120	0xbd8f87d7	-0.07008331
121	0xbe13a486	-0.1441823
122	0xbc1297d0	-0.008947328
123	0x3ddf1f01	0.108945854
124	0xbe834ebe	-0.25646013
125	0x3b9eb38d	0.0048431815
126	0xbe84c17a	-0.2592886
127	0x3bfeb518	0.007773053
128	0xbe0151d5	-0.12628873
129	0xbe810b7e	-0.2520408
130	0x3bab6d29	0.0052315188
131	0xbdeef0ab	-0.116669975
132	0x3d941aa9	0.072316475
133	0xbe2e76d9	-0.17037524
134	0xbd66ce98	-0.056349367
135	0x3d2518f4	0.040307
136	0xbd8694e4	-0.065713674
137	0xbed2fc0c	-0.41207922
138	0x3e29bd92	0.16576222
139	0xbdef5cf9	-0.11687655
140	0xbea50306	-0.3222887
141	0x3cf47bc3	0.02984417
142	0x3f023b24	0.5087149
143	0x3d77d9b4	0.060510352
144	0xbdf6ea0c	-0.1205636
145	0x3e544dff	0.20732878
146	0x3e7f0813	0.24905424
147	0x3d056793	0.03256948
148	0xbe172b90	-0.14762712
149	0x3e293df8	0.16527545
150	0x3da5f1c1	0.081027515
151	0x3e2ff232	0.17182234
152	0xbd28013e	-0.04101681
153	0x3e92afe2	0.28649813
154	0xbd047eeb	-0.0323476
155	0xbdb68c57	-0.089134865
156	0x3e616341	0.22010519
157	0xbcff4ff9	-0.031166064
158	0xbd863112	-0.06552328
159	0x3e585dc6	0.21129522
160	0x3e5aa31a	0.21351281
161	0xbe11690b	-0.14200227
162	0x3e055a21	0.13022663
163	0x3ec10c21	0.37704566
164	0xbcd9f05e	-0.026603874
165	0x3e1b15df	0.15145062
166	0x3dee29e1	0.116290815
167	0x3e7d25ad	0.24721403
168	0xbe1e96e3	-0.15487246
169	0xbe32f9f1	-0.17478158
170	0xbe1f74b4	-0.15571862
171	0x3dc77e92	0.09740938
172	0xbe198610	-0.14992547
173	0xbea2a3f0	-0.317657
174	0x3e8f876e	0.28033012
175	0x3e4cca23	0.19998984
176	0x3db2c7a9	0.087294884
177	0x3d42ebf5	0.047588307
178	0xbecf4000	-0.40478516
179	0x3eed5d65	0.46360317
180	0x3e8c2cf6	0.27378052
181	0xbd87db66	-0.06633644
182	0xbe811d2c	-0.2521757
183	0xbe813990	-0.2523923
184	0x3e63a6cd	0.22231598
185	0xbee48a70	-0.4463687
186	0xbdd4ec8e	-0.10396682
187	0x3e3f10be	0.1865873
188	0xbda26902	-0.07930185
189	0x3e9ba367	0.30398104
190	0xbcb36163	-0.021897024
191	0xbe3dad5a	-0.1852316
192	0xbdaf22a7	-0.08551531
193	0x3ea44711	0.3208547
194	0x3d14b436	0.036304675
195	0x3e9eeaa8	0.31038404
196	0x3bec72ca	0.0072158324
197	0x3e82228d	0.25416985
198	0x3e81a691	0.25322393
199	0xbdc04354	-0.09387842
200	0xbce36057	-0.0277559
201	0xbcfb9e95	-0.030715266
202	0xbe0df446	-0.13862714
203	0x3f0981f0	0.53713894
204	0x3e856f7d	0.2606162
205	0xbdfc47c7	-0.12318378
206	0xbe34acea	-0.17644086
207	0xbc801ab9	-0.015637742
208	0xbd356bcd	-0.04429226
209	0x3da6fe01	0.08153916
210	0x3e106faa	0.14105096
211	0x3e83ae37	0.25718853
212	0xbc5d3841	-0.0135021815
213	0xbdc0e5db	-0.094188415
214	0xbd201333	-0.03908081
215	0xbe92e1d1	-0.2868791
216	0x3ec70b41	0.38875774
217	0x3e8e6e96	0.27818745
218	0x3e24b267	0.1608368
219	0xbd0904e5	-0.033451933
220	0xbdbefa35	-0.09325067
221	0x3eb57ff8	0.35449195
222	0xbd886ef4	-0.06661788
223	0x3dd1ca7c	0.10243699
224	0x3cdfae53	0.027304804
225	0x3bfd12fc	0.0077232104
226	0x3c4bc58d	0.0124372365
227	0xbe544660	-0.20729971
228	0xbe969f0a	-0.29418212
229	0xbe8720bd	-0.26392165
230	0x3d5f4723	0.0545112
231	0x3d7b48bb	0.061348658
232	0xbdff7762	-0.12473942
233	0x3e82b68f	0.25529906
234	0x3e471904	0.19443136
235	0x3c8767cf	0.016528992
236	0xbe583da0	-0.21117258
237	0xbc156d4d	-0.009120298
238	0xbe88f56f	-0.2674975
239	0x3e9c107c	0.30481327
240	0xbd390ff7	-0.04518124
241	0x3e6a7012	0.22894314
242	0x3e8b3de2	0.2719565
243	0xbd49a52c	-0.049229786
244	0xbe957b15	-0.29195467
245	0x3e265f8a	0.16247383
246	0x3e250966	0.16116866
247	0xbd1e731d	-0.038684
248	0xbd9cad92	-0.076502934
249	0x3e28a663	0.16469721
250	0x3eb1f0c5	0.34754005
251	0xbe709bb4	-0.23496896
252	0x3dacc24e	0.08435498
253	0x3d413120	0.04716599
254	0xbe854f50	-0.26037073
255	0x3d7b988a	0.06142477

lstm.bias_ih_l0 f4 [256]
0	0xbaaaabb1	-0.0013021139
1	0x3e4251b3	0.18976478
2	0xbcc9e515	-0.024645368
3	0x3e10143f	0.14070223
4	0x3e273f58	0.16332757
5	0x3cd1278d	0.025531555
6	0x3e0df521	0.1386304
7	0x3e0df434	0.13862687
8	0xbdc6c023	-0.09704616
9	0x3d972311	0.07379735
10	0x3d675822	0.056480534
11	0xbd6be054	-0.057586983
12	0xbdb25fbb	-0.087096654
13	0x3e148b46	0.14506254
14	0x3e8a9330	0.2706542
15	0x3d95d5e9	0.07316191
16	0x3df7ff2d	0.12109218
17	0xbabaa438	-0.0014239615
18	0xbe0716b9	-0.13192262
19	0x3cf1d5a5	0.029520819
20	0x3dcbbaaa	0.09947713
21	0xbde2d6b7	-0.1107611
22	0x3bc31cd5	0.005954365
23	0x3ddaa006	0.10675053
24	0x3ccdab71	0.025106164
25	0x3e494674	0.19655782
26	0x3e1ac1dc	0.15113014
27	0xbe01ff2f	-0.12695001
28	0x3d8e1a5b	0.06938621
29	0x3e08bcd6	0.13353285
30	0x3d166f37	0.036727156
31	0x3eb32731	0.34990838
32	0x3d35a31b	0.044345003
33	0x3d40a7bc	0.047034964
34	0x3e5c2852	0.21499756
35	0x3d8c9f19	0.06866283
36	0x3df77e8a	0.12084682
37	0xbd885d23	-0.066583894
38	0x3d70b1c8	0.058763295
39	0x3dbb494d	0.091448404
40	0x3daeebde	0.08541082
41	0x3e179339	0.14802255
42	0x3dc286c1	0.094983585
43	0x3da6211f	0.08111786
44	0x3ba9d435	0.0051827678
45	0x3d34cbfb	0.044139843
46	0x3ddbccd7	0.107324295
47	0xbd272821	-0.040809754
48	0x3d5bb6ad	0.05364101
49	0xbbda98e7	-0.0066710594
50	0x3d828311	0.06372655
51	0x3e0fdd81	0.14049341
52	0x3e39044c	0.18068045
53	0xbdf5964b	-0.11991557
54	0x3d869df4	0.06573096
55	0x3db6de5f	0.08929133
56	0x3cad0c08	0.021123901
57	0x398a1168	0.0002633438
58	0x3e152d32	0.14568022
59	0x3c63122f	0.013859316
60	0x3e9726d6	0.29521817
61	0x3c118790	0.008882418
62	0xbd9d07ec	-0.076675266
63	0x3e21bb6d	0.15794154
64	0xbd97152d	-0.07377086
65	0x3db92fd2	0.09042324
66	0x3e359e5e	0.17736194
67	0x3e4b626d	0.19861765
68	0xbc4ac864	-0.012376878
69	0x3e762499	0.24037398
70	0x3e1a2d51	0.1505635
71	0xbd07a7c8	-0.033118993
72	0x3d8ddba5	0.069266595
73	0xbdfb15f1	-0.12260044
74	0x3e4658c5	0.193698
75	0x3e3927ee	0.18081638
76	0x3e729131	0.23688199
77	0x3e071b26	0.1319395
78	0x3e232153	0.15930681
79	0x3d75a6a2	0.059973367
80	0x3d91b027	0.071136765
81	0x3cd7c677	0.026339753
82	0x3e3d659b	0.1849579
83	0x3d50cd86	0.050977252
84	0x39d77d85	0.00041101515
85	0x3d08ec1d	0.0334283
86	0x3df8395e	0.12120317
87	0x3e52eeff	0.20598982
88	0x3e205429	0.15657105
89	0x3d96c505	0.07361797
90	0x3d341c37	0.04397222
91	0x3e00fc7c	0.12596315
92	0x3d102d2a	0.03519932
93	0x3e697e16	0.22802004
94	0x3d6977dd	0.056999076
95	0x3e3ac7b8	0.18240249
96	0x3e209850	0.15683103
97	0x3d9c11cc	0.07620582
98	0x3e893041	0.26794627
99	0x3e317098	0.17328107
100	0x3e187623	0.14888816
101	0x3e6b4145	0.22974117
102	0x3e45f017	0.19329868
103	0x3e49fe05	0.19725807
104	0x3c6be02d	0.014396709
105	0xbcd59623	-0.026072567
106	0x3e6f420b	0.23365037
107	0x3d97b1fe	0.07406996
108	0xbccf7520	-0.025324404
109	0x3e4f3c77	0.2023791
110	0x3db425d1	0.087962754
111	0x3dff37a7	0.12461787
112	0x3dd067b5	0.101760305
113	0xbd85fb05	-0.06542019
114	0x3e24c25b	0.16089766
115	0x3dbf7f0c	0.09350404
116	0x3e7ebffc	0.24877924
117	0xbd56f1e9	-0.052476797
118	0x3cd66f00	0.026175976
119	0x3e765f94	0.24059898
120	0x3e9c27b8	0.30499053
121	0x3d10d567	0.035359766
122	0xbcb1d778	-0.021709189
123	0x3dbee968	0.093218625
124	0x3deb1d63	0.114802144
125	0x3e2e53ee	0.17024204
126	0xbd992142	-0.074770465
127	0x3e7644ff	0.24049757
128	0x3c26e5f3	0.01018666
129	0x3d0965dd	0.03354441
130	0xbdd4b031	-0.10385168
131	0x3cff04e4	0.031130262
132	0x3d620cd3	0.05518801
133	0xbd570413	-0.05249412
134	0xbc1edc7f	-0.009696125
135	0xbe1b0e60	-0.15142202
136	0x3e0b85c5	0.13625248
137	0x3da2e885	0.07954506
138	0xbd85b436	-0.06528513
139	0x3d1457d5	0.036216576
140	0xbbe670a6	-0.0070324717
141	0x3e00feb4	0.12597162
142	0x3dd22c03	0.10262301
143	0x3d59ea47	0.05320194
144	0x3ca19ea4	0.019728966
145	0x3d231f3f	0.03982472
146	0xbcd91b0a	-0.026502151
147	0x3cb114b2	0.021616314
148	0xbe032ca7	-0.12810002
149	0xbd26986e	-0.040672712
150	0xbde11969	-0.10991175
151	0xbb68ac10	-0.0035502948
152	0x3de7d2bb	0.113194905
153	0xbdc7b463	-0.09751203
154	0xbb9e9699	-0.00483973
155	0xbd241d4d	-0.040067006
156	0x3de5d781	0.11222745
157	0x3dd90719	0.10597057
158	0x3dbdb0c1	0.09262229
159	0x3bc4a05e	0.0060005626
160	0xbdde0e85	-0.10842613
161	0xbcfa9abd	-0.030591363
162	0xbd7dcb16	-0.061961256
163	0xbdf8e2f0	-0.1215266
164	0xbd3ba531	-0.045811836
165	0xbcd5993c	-0.026074044
166	0xbd90b6e3	-0.07066133
167	0xbd8ef95b	-0.069811545
168	0xbd729bf5	-0.059230763
169	0x3b618a09	0.003441455
170	0xbd86c6dd	-0.06580899
171	0x3de8c8be	0.113664135
172	0x3de85c71	0.11345757
173	0x3dbf06d3	0.093274735
174	0x3d94d97f	0.072680466
175	0xbe1fbb8d	-0.15598889
176	0xbd9a7c24	-0.07543209
177	0xbc88e893	-0.016712463
178	0x3d0d0131	0.034424964
179	0x3d8c0f36	0.06838839
180	0xbcfb321d	-0.030663544
181	0xbce6d1c7	-0.028176202
182	0xbd88789b	-0.06663629
183	0x3db15757	0.08659237
184	0x3cf0308e	0.029320028
185	0x3d042493	0.032261442
186	0x3db46865	0.08808974
187	0x3c935198	0.017983243
188	0x3db40560	0.08790088
189	0xbd3c5ec3	-0.04598881
190	0x3d67ab04	0.056559578
191	0x3d0be84c	0.034157082
192	0xbcceb77f	-0.025233982
193	0x3e0c158d	0.13680096
194	0x3d00ae98	0.031416506
195	0x3e2e3f52	0.17016342
196	0x3e8c396b	0.27387556
197	0x3d2c097c	0.042001233
198	0x3d37b287	0.04484799
199	0x3e0e0274	0.13868123
200	0x3e0adf30	0.13561702
201	0x3e8e283d	0.27765074
202	0x3e665968	0.22495043
203	0x3e4a7fcf	0.19775318
204	0x3de8b557	0.11362713
205	0x3e476747	0.19472991
206	0x3f07d9f8	0.5306697
207	0x3e4cf89b	0.2001671
208	0x3e14a68d	0.14516659
209	0xbab44a50	-0.0013755057
210	0x3dcff755	0.10154597
211	0x3e37cd8a	0.179495
212	0xbd250f48	-0.040297776
213	0x3dccfae7	0.10008793
214	0x3d8d014d	0.06885014
215	0x3e0ae2d1	0.13563086
216	0x3b122a18	0.0022302922
217	0x3eab8eeb	0.33507475
218	0x3d415120	0.047196507
219	0x3e765f07	0.24059688
220	0x3df6154a	0.12015779
221	0x3ea7b184	0.3275262
222	0x3e8887a6	0.26665992
223	0x3ed3139b	0.41225895
224	0x3e310a08	0.17288983
225	0x3ddd2402	0.107978836
226	0x3e3d96da	0.18514577
227	0x3d318158	0.043336242
228	0x3ca9d963	0.02073354
229	0xbd132f19	-0.035933588
230	0x3e1164f5	0.14198668
231	0x3d3be741	0.045874838
232	0x3daf953d	0.08573387
233	0x3e5f180d	0.21786518
234	0x3e4b5e48	0.19860184
235	0x3e9a0e36	0.30088967
236	0x3d516be8	0.051128298
237	0x3e99513a	0.29944783
238	0x3e9c164f	0.3048577
239	0x3e93c5ce	0.2886185
240	0x3d450daf	0.048108753
241	0x3d937e34	0.07201806
242	0x3eb279b8	0.3485849
243	0x3e7a04ea	0.24415937
244	0x3e363bc5	0.17796238
245	0x3d0e54a6	0.034748696
246	0x3e290c87	0.16508685
247	0x3e8c1ba2	0.27364832
248	0x3e730c7c	0.23735231
249	0x3c11eba1	0.008906276
250	0x3de0c9ee	0.10976015
251	0x3d84a344	0.06476453
252	0x3e17833c	0.14796156
253	0x3e3113bd	0.17292686
254	0x3dddcab8	0.10829681
255	0x3d9bf9f2	0.07616033

lstm.bias_hh_l0 f4 [256]
0	0xbe09f797	-0.13473354
1	0x3e4ce70d	0.20010014
2	0x3e3b1479	0.18269528
3	0x3e435473	0.19075184
4	0x3dc207c8	0.094741404
5	0xbe190ee3	-0.14947085
6	0x3ca53ef8	0.020171627
7	0x3d41c861	0.047310237
8	0xbd0a5ffe	-0.03378295
9	0x3da2791a	0.079332545
10	0x3e442471	0.19154526
11	0x3cbd3fbd	0.023101682
12	0xbd48f79e	-0.04906427
13	0x3d115c9c	0.03548871
14	0x3d76a690	0.06021744
15	0xbd606be7	-0.054790404
16	0x3d1b4d70	0.037915647
17	0xbcb53fdb	-0.022125175
18	0xbd5e7464	-0.054310217
19	0x3bd61bea	0.0065340893
20	0x3e21b4cf	0.15791629
21	0xbe207619	-0.1567005
22	0xbd54d401	-0.051959995
23	0x3cc8a177	0.024491055
24	0x3de4eb29	0.11177666
25	0x3d97b9ee	0.0740851
26	0xbd33d9b5	-0.043908793
27	0xbcace23f	-0.021103976
28	0x3e412cbf	0.18864726
29	0x3e6cd913	0.23129682
30	0x3e0cc6c8	0.13747704
31	0x3e4e1342	0.20124534
32	0x3e62fd3d	0.22166915
33	0xbd835705	-0.06413082
34	0x3e4c33a2	0.19941571
35	0xbd337902	-0.043816574
36	0x3d1af11e	0.037827604
37	0xbc006243	-0.007835927
38	0x3e145ffb	0.14489739
39	0x3e748e46	0.23882398
40	0x3de8c104	0.1136494
41	0x3e07990f	0.13241981
42	0x3dec8c63	0.11550214
43	0xbc70bbf7	-0.014693252
44	0xbd7e6282	-0.062105663
45	0x3e69f76f	0.22848295
46	0x3e034822	0.12820485
47	0xbdae9de7	-0.08526211
48	0x3d4b2751	0.049598042
49	0x3d62047e	0.055180065
50	0x3daba749	0.083815165
51	0x3daf23c0	0.08551741
52	0x3e867a97	0.26265404
53	0x3c9f4d77	0.019446118
54	0x3e737cc8	0.23778069
55	0x3e397ae0	0.1811328
56	0xbd31feaf	-0.043455776
57	0xbd9f18fe	-0.07768439
58	0x3e86aa50	0.26301813
59	0x3e667638	0.22506034
60	0x3dabaab8	0.083821714
61	0x3d9853c0	0.07437849
62	0x3ceeee9e	0.029166516
63	0x3d8ec58c	0.06971273
64	0x3d8718e5	0.06596545
65	0x3d9ab0c0	0.07553244
66	0xbd0f5b4c	-0.034999177
67	0x3da99d45	0.0828195
68	0x3e2ce811	0.16885401
69	0x3e31e0a7	0.17370854
70	0x3e73a4a5	0.23793276
71	0x3d1c133f	0.038104292
72	0x3d4b7490	0.04967171
73	0xbe00896f	-0.12552427
74	0x3d8fea51	0.07027114
75	0x3e14c7f6	0.14529404
76	0x3e14032d	0.14454336
77	0x3e1434e4	0.14473301
78	0x3e26f3bb	0.16303913
79	0x3e839274	0.25697672
80	0x3e147502	0.1449776
81	0x3d353133	0.044236373
82	0x3dcf6460	0.10126567
83	0xbd654ef0	-0.055983484
84	0x3c6654b7	0.0140582835
85	0x3cb89a36	0.022534471
86	0x3cdd433b	0.027009597
87	0x3dfa31ca	0.12216528
88	0xbb87b960	-0.0041419715
89	0xbb36f07f	-0.0027914343
90	0x3dbba361	0.091620214
91	0x3df976d0	0.12180865
92	0x3e4740b3	0.19458275
93	0x3e4cda2c	0.20005101
94	0x3ddb5763	0.10710027
95	0x3e53f350	0.20698285
96	0x3e81e791	0.25371984
97	0x3e0773ec	0.13227814
98	0x3dbac448	0.09119469
99	0x3db63665	0.08897094
100	0x3e0182c1	0.12647535
101	0x3e512d3f	0.20427416
102	0x3daa0566	0.08301811
103	0x3dc2977d	0.0950155
104	0x3e5ba241	0.21448614
105	0x3bd98bb6	0.0066389693
106	0x3d163cd2	0.036679097
107	0x3e0b4d7d	0.13603778
108	0x3cc733aa	0.024316628
109	0x3e1e781b	0.15475504
110	0x3d68aeb2	0.056807227
111	0xbbed3b55	-0.007239739
112	0x3e46166c	0.19344491
113	0x3e007842	0.12545875
114	0x3e43f2cd	0.1913559
115	0x3def3f98	0.116820514
116	0x3dcec533	0.100962065
117	0x3ddeb203	0.10873797
118	0xbcbcb4e7	-0.02303548
119	0x3e1d029e	0.1533303
120	0x3e677e06	0.22606668
121	0x3dca03c1	0.09863997
122	0xbcd38e1a	-0.025824595
123	0x3dfe2111	0.12408651
124	0x3e33e81f	0.17569016
125	0x3e2261b4	0.15857583
126	0xbcdd6072	-0.027023528
127	0x3d72675c	0.059180602
128	0xbda437c5	-0.0801845
129	0xbd38c07a	-0.045105435
130	0xbd33793e	-0.043816797
131	0x3d80003c	0.06250045
132	0xbcf991d0	-0.030465037
133	0xbd8615b4	-0.06547108
134	0x3d9869ce	0.07442056
135	0xbc7d7b37	-0.015471271
136	0x3d97b812	0.074081555
137	0xbd28ecab	-0.04124133
138	0xbdf3db5a	-0.11907072
139	0xbda57490	-0.08078873
140	0xbd79a8e4	-0.060952082
141	0x3d8ba027	0.06817656
142	0x3c2eeb3b	0.0106762005
143	0x3d50240d	0.05081563
144	0xbb65686d	-0.003500487
145	0xbd404313	-0.046938967
146	0x3d722371	0.05911583
147	0x3d82c1b7	0.063846044
148	0xbd6abd7f	-0.057309624
149	0xbe1dbedf	-0.15404843
150	0xbcec2983	-0.028828388
151	0xbda274dd	-0.07932446
152	0xbda55d89	-0.08074481
153	0x3d8ac657	0.067761116
154	0x3ac9852e	0.0015374774
155	0xba86594a	-0.0010249999
156	0xbb77f40f	-0.003783468
157	0xbddc69a1	-0.107623346
158	0xbdb981b3	-0.09057941
159	0xbc198a4d	-0.009371352
160	0xbe0cb338	-0.13740242
161	0xbac53a99	-0.0015047371
162	0x3c367bcd	0.011137915
163	0xbdf935e0	-0.12168479
164	0xbdc61d72	-0.09673585
165	0xbe03c00e	-0.12866232
166	0xbd8a8e13	-0.0676538
167	0x3dad9a8a	0.084767416
168	0xbd986be5	-0.07442454
169	0xbb76cab4	-0.0037657442
170	0x3d86bbbe	0.06578778
171	0x3e14e80f	0.14541648
172	0x3da6f5df	0.08152365
173	0x3d53be3e	0.0516951
174	0xbd57768a	-0.052603282
175	0xbda6add9	-0.081386276
176	0x3daa89ca	0.083270624
177	0x3d717072	0.058945127
178	0x3cc0e1d8	0.02354519
179	0xbd0671d4	-0.0328234
180	0x3d8cdc1a	0.068779185
181	0xbc8a41a6	-0.016877007
182	0xbd0f980e	-0.03505712
183	0xbd1f94c7	-0.038960245
184	0xbdbb88e0	-0.09156966
185	0x3d95f2b9	0.07321686
186	0xbcefe59e	-0.029284295
187	0x3d9d0400	0.076667786
188	0x3d3dfd22	0.046383984
189	0x3d46b4c3	0.04851223
190	0x3c887e93	0.016661918
191	0xbd98a557	-0.07453411
192	0x3c93b423	0.018030232
193	0x3c0f5491	0.00874819
194	0x3d8b9a0e	0.06816493
195	0x3e2c4c8a	0.16826072
196	0x3e682c66	0.22673187
197	0xbd95faf5	-0.07323257
198	0xbc968cc8	-0.018377677
199	0x3ddb436c	0.10706219
200	0x3e891346	0.26772517
201	0x3e75dbf7	0.24009691
202	0x3d5f621f	0.054536935
203	0x3d437c8a	0.04772619
204	0x3d593d2f	0.053036865
205	0x3eb1b60c	0.34709203
206	0x3f068932	0.52553093
207	0x3e9124a2	0.2834826
208	0x3e1581a5	0.14600237
209	0xbca9d6fa	-0.020732392
210	0xbd0b8189	-0.03405908
211	0x3e1bd7d2	0.15219048
212	0xbe11d8b3	-0.1424282
213	0xbd1cd7bc	-0.038291678
214	0xbca31aab	-0.019910177
215	0x3e7d1e7a	0.24718657
216	0x3e22e8a7	0.15909062
217	0x3e84bce4	0.25925362
218	0x3e128702	0.14309314
219	0x3e25f54f	0.16206859
220	0x3ea3d35a	0.31997186
221	0x3e99de60	0.3005247
222	0x3dbdc3ff	0.09265899
223	0x3e80e7bf	0.25176808
224	0x3e353f8c	0.17700022
225	0x3e0da295	0.13831551
226	0x3e6263c6	0.22108373
227	0x3e2750f2	0.16339472
228	0x3e02de83	0.12780194
229	0x3e2cc50b	0.16872041
230	0x3e47744c	0.19477957
231	0x3e24c517	0.16090809
232	0x3e587861	0.21139671
233	0x3e0e8d56	0.13921103
234	0x3e40a6f2	0.18813685
235	0x3e699bea	0.22813383
236	0x3d9ee4ee	0.077585086
237	0x3db599dc	0.08867237
238	0x3db471e6	0.08810787
239	0x3eb1e290	0.34743166
240	0x3dfa18e8	0.12211782
241	0x3e0e8a7a	0.13920012
242	0x3eb5b796	0.35491627
243	0x3e34a622	0.176415
244	0x3e25e5c9	0.16200937
245	0x3e45381b	0.19259684
246	0x3e882a93	0.26594982
247	0x3ec91204	0.39271557
248	0x3e7ec984	0.2488156
249	0x3d96eda1	0.07369543
250	0x3dde0cae	0.10842262
251	0x3e18554b	0.14876287
252	0x3e163f0c	0.14672488
253	0x3dd3de7f	0.10345172
254	0x3ddf3b70	0.10900009
255	0x3dcaadea	0.09896453

lstm.weight_ih_l1 f4 [256, 64]
0	0xbcbbe742	-0.02293742
1	0x3e360a52	0.17777374
2	0x3e0a983d	0.13534637
3	0xbd41130f	-0.047137316
4	0x3deca282	0.115544334
5	0x3ceeda79	0.02915691
6	0xbc938e27	-0.01801212
7	0x3dee7d93	0.11645045
8	0x3e3a638a	0.18202034
9	0x3d14079f	0.03614008
10	0xbe795a21	-0.24350788
11	0x3e08e101	0.13367082
12	0x3ddc4b84	0.10756591
13	0xbd3f3f97	-0.046691503
14	0xbda420b7	-0.08014052
15	0x3e15af7d	0.14617725
16	0x3e05bdaf	0.1306064
17	0xbe174646	-0.14772901
18	0x3d1a73b5	0.037708003
19	0xbe189a6b	-0.14902656
20	0x3cf120f2	0.029434655
21	0xbe1629d1	-0.14664389
22	0xbd2e4a44	-0.042551294
23	0x3e18dd7b	0.14928238
24	0x3e0e10b3	0.13873558
25	0xbe4ca2a9	-0.19983925
26	0xbc264d09	-0.010150203
27	0xbe7c4c26	-0.24638423
28	0xbe73dbd3	-0.23814325
29	0xbd4e7287	-0.05040219
30	0xbe40b9c7	-0.18820868
31	0x3db1600e	0.08660899
32	0xbd7be71b	-0.061499696
33	0x3e464ef2	0.19366053
34	0x3c9b707a	0.018974531
35	0x3dd1685f	0.10224985
36	0xbe804b49	-0.25057438
37	0x3c6456bb	0.013936694
38	0x3e71c59e	0.23610541
39	0xbd9563a1	-0.07294393
40	0x3dbc25b6	0.0918688
41	0x3cf0218f	0.029312877
42	0xbc8a8ffc	-0.01691436
43	0x3dc0b5db	0.09409686
44	0xba629cde	-0.0008644591
45	0xbe90dbc9	-0.28292683
46	0xbd811c91	-0.06304277
47	0x3eab1031	0.3341079
48	0xbc87db5f	-0.016584096
49	0x3d662185	0.05618431
50	0xbc6e1a2b	-0.014532606
51	0x3eb535da	0.35392648
52	0xbdae374c	-0.08506641
53	0xbd497511	-0.04918391
54	0xbd271d73	-0.04079957
55	0xbda8c695	-0.082410015
56	0x3e33932e	0.17536613
57	0x3d4c99d2	0.049951382
58	0x3e2c3ddc	0.16820472
59	0xbd9e467d	-0.07728288
60	0x3b18dac2	0.002332375
61	0xbe1671dd	-0.14691873
62	0xbdca94b9	-0.09891648
63	0x3e09bee2	0.13451722
64	0xbc45023a	-0.012024457
65	0x3d619d2d	0.055081535
66	0xbd62de34	-0.05538769
67	0x3dec75d6	0.11545913
68	0x3dc1352e	0.09433971
69	0xbbe83725	-0.007086652
70	0x3e5f0765	0.21780165
71	0xbb3b12a5	-0.0028545049
72	0x3e3f4c56	0.18681464
73	0x3db52751	0.0884539
74	0x3e07a593	0.13246755
75	0xbde4d3cd	-0.1117321
76	0x3e2df026	0.1698614
77	0xbd81bb33	-0.063345335
78	0xbcad83a1	-0.02118093
79	0x3e5172d6	0.20453963
80	0x3d5025fd	0.05081748
81	0x3e19be59	0.15014018
82	0x3e3802ab	0.17969768
83	0x3db44f1a	0.0880415
84	0xbd69f5f7	-0.057119336
85	0xbe28a4e5	-0.16469152
86	0xb9cbd22f	-0.00038875776
87	0xbcb42fb6	-0.021995407
88	0x3db9d59f	0.09073948
89	0xbe30304f	-0.17205928
90	0x3d975893	0.07389941
91	0x3c3e52c2	0.011616411
92	0x3db5942a	0.08866151
93	0xbc4c57b4	-0.012472082
94	0xbda94b0d	-0.08266268
95	0x3cc14216	0.023591083
96	0xbe030849	-0.1279613
97	0xbdc557cd	-0.09635887
98	0x3cf31f1e	0.029677924
99	0xbe81fca4	-0.25388062
100	0xbe05eefc	-0.13079447
101	0xbded33b2	-0.11582126
102	0xbe0fc3bb	-0.14039509
103	0xbd9aeada	-0.07564326
104	0x3dcec04d	0.10095272
105	0x3d202ff3	0.039108228
106	0x3d37ae25	0.04484381
107	0x3e592d67	0.21208726
108	0xbcc87751	-0.024470957
109	0xbe83f454	-0.25772345
110	0xbc151a61	-0.0091005275
111	0x3d9dbb9d	0.077018
112	0x3dad8306	0.08472256
113	0xbceb392a	-0.028713781
114	0xbe3d7ac0	-0.18503857
115	0x3d2c6bf2	0.042095132
116	0xbe73bf87	-0.2380353
117	0x3e125006	0.14288339
118	0x3d010b8d	0.031505156
119	0x3d0accf8	0.03388688
120	0xbd193ac0	-0.037409544
121	0x3e07a7aa	0.13247553
122	0xbda2a4da	-0.07941599
123	0xbde92cb1	-0.11385477
124	0x3e26eb3b	0.16300671
125	0xbe60e60c	-0.21962756
126	0x3d06ddbd	0.03292631
127	0xbbddbd43	-0.0067669465
128	0x3bdd6064	0.0067558754
129	0x3eb95985	0.3620111
130	0xbe981c77	-0.29709217
131	0xbe1f607d	-0.15564151
132	0x3ce0cdc8	0.027441874
133	0x3de92075	0.11383144
134	0x3df40992	0.11915888
135	0xbdcdadea	-0.10042937
136	0x3e236093	0.15954809
137	0x3ee2a0cb	0.442633
138	0x3e1c92f8	0.15290439
139	0xbdfe1bd6	-0.12407653
140	0x3db7a536	0.08967058
141	0xbe3877a3	-0.18014388
142	0x3df9f257	0.12204426
143	0xbed8b397	-0.42324516
144	0x3e38b464	0.18037564
145	0xbe4e06d2	-0.20119789
146	0x3e59335a	0.21210995
147	0x3d5bb069	0.053635035
148	0xbcdc0773	-0.02685902
149	0x3c8883b1	0.016664358
150	0xbe2f62f7	-0.17127596
151	0xbe110867	-0.14163361
152	0x3cab03cc	0.020875834
153	0xbdd6f02c	-0.10495028
154	0x3e0cd0c2	0.1375151
155	0x3e1b7136	0.15179905
156	0xbba61a4a	-0.005069052
157	0x3e36f914	0.17868453
158	0xbd68dac0	-0.05684924
159	0x3e0be61d	0.13662
160	0x3e3b1329	0.18269028
161	0x3e90de31	0.2829452
162	0xbe260282	-0.16211894
163	0xbe29bfd4	-0.16577083
164	0x3de1c51e	0.11023925
165	0x3c06b68c	0.0082222335
166	0xbcedc9d3	-0.029026901
167	0xbe06e161	-0.13171913
168	0x3dc9253b	0.09821554
169	0xbe3a92b6	-0.18220028
170	0x3e94b7c8	0.29046464
171	0xbdf687ce	-0.120376214
172	0x3e58d4e3	0.2117496
173	0x3d239ee3	0.039946448
174	0xbd919a2e	-0.071094856
175	0xbd4894e8	-0.048970133
176	0xbde2d7d6	-0.11076324
177	0x3e0b9c5f	0.1363387
178	0x3e93abfb	0.28842148
179	0xbb56ebd3	-0.003279437
180	0x3e4603b0	0.19337344
181	0xbe21b467	-0.15791474
182	0x3ead5181	0.33851245
183	0x3de9a77d	0.11408899
184	0x3d90c09c	0.07067987
185	0x3daa1884	0.08305457
186	0xbd74d5c0	-0.05977416
187	0x3e17f29b	0.1483864
188	0xbcf94ba2	-0.030431572
189	0x3e83cc5c	0.2574185
190	0x3cc6d03b	0.024269214
191	0xbbb4a0d2	-0.0055123353
192	0xbd45b3b3	-0.048267078
193	0xbdba97e9	-0.09111006
194	0x3e5c124d	0.21491356
195	0x3d433598	0.047658533
196	0xbbd8558a	-0.006601994
197	0xbd1fa530	-0.038975894
198	0xbd7cbc7a	-0.061703183
199	0x3c215049	0.009845802
200	0x3b32652b	0.0027220945
201	0xbdb768b0	-0.089555144
202	0xbe0ad9e5	-0.13559683
203	0x3e2cb82e	0.16867134
204	0xbda8e6ee	-0.08247171
205	0xbe6db45d	-0.23213334
206	0x3dc7f5bb	0.09763666
207	0x3e209858	0.15683115
208	0x3e8dc3c8	0.27688432
209	0xbdca9e51	-0.09893478
210	0xbcd49667	-0.025950624
211	0x3ca5cc02	0.02023888
212	0xbd11dc58	-0.035610527
213	0xbe68a102	-0.2271767
214	0x3e266f87	0.16253482
215	0xbde32cca	-0.11092527
216	0x3e7d1b66	0.24717483
217	0xbe8ba541	-0.27274516
218	0x3c78b9ce	0.015181018
219	0x3e2dc5eb	0.16970031
220	0xbe64cc8a	-0.2234365
221	0x3e8dcd78	0.27695823
222	0xbcc05e79	-0.023482548
223	0xbd924400	-0.07141876
224	0xbd924f12	-0.07143988
225	0xbe061611	-0.13094355
226	0x3cf8ef2a	0.03038748
227	0xbd719668	-0.05898133
228	0xbe7968f2	-0.2435644
229	0xbc683bfd	-0.014174459
230	0x3e1ebbab	0.15501277
231	0x3da111e5	0.07864741
232	0x3c5c4ef2	0.013446556
233	0x3e8ae609	0.27128628
234	0xbd95e63e	-0.07319306
235	0x3ed37c3e	0.41305727
236	0xbdb5829b	-0.08862802
237	0xbdfb4652	-0.12269272
238	0x3cedaa8f	0.029011993
239	0x3d86e2ac	0.06586203
240	0x3e14a3f1	0.14515664
241	0xbd1f2122	-0.038849957
242	0xbd9d0f67	-0.076689534
243	0x3e0d117d	0.13776202
244	0xbdadca2d	-0.084858276
245	0x3e5e8da1	0.21733715
246	0xbc12262c	-0.008920234
247	0x3e0d047b	0.1377124
248	0x3e854d62	0.260356
249	0xbdc87383	-0.09787657
250	0xbe1131d2	-0.14179161
251	0xbdc9bd55	-0.09850565
252	0x3e33948f	0.1753714
253	0xbc706931	-0.014673517
254	0xbd748959	-0.059701297
255	0xbe1682fd	-0.14698406

lstm.weight_hh_l1 f4 [256, 64]
0	0xbe1a66eb	-0.15078323
1	0x3e4870ee	0.1957433
2	0xbe5e5f6d	-0.2171609
3	0xbdbd0fcf	-0.09231531
4	0xbd0561db	-0.032564025
5	0x3cf6b6ec	0.03011652
6	0xbd88102d	-0.0664371
7	0xbe2074e4	-0.1566959
8	0x3db10e01	0.08645249
9	0x3d9791e0	0.0740087
10	0xbdb5cd1c	-0.08877012
11	0xbdbfdbbc	-0.09368083
12	0xbe91d9f0	-0.28486586
13	0xbe48c2e2	-0.19605592
14	0xbc357b06	-0.011076694
15	0x3deaaa52	0.11458267
16	0x3e207320	0.15668917
17	0x3de7c1cc	0.11316261
18	0xbca779d6	-0.020443838
19	0x3d6b5489	0.057453666
20	0xbe0592f1	-0.13044335
21	0x3dc7b821	0.09751917
22	0x3dfda5fb	0.12385174
23	0x3d203ac0	0.03911853
24	0x3ceec4fd	0.029146666
25	0xbc9bb9d8	-0.019009516
26	0xbc0b4e80	-0.008502603
27	0xbe020dfc	-0.12700647
28	0x3e14cd83	0.14531521
29	0x3d26946c	0.04066889
30	0xbc141a88	-0.009039529
31	0xbe259b46	-0.16172513
32	0xbe046813	-0.12930326
33	0xbdf586e4	-0.11988619
34	0xbd66603b	-0.056244116
35	0xbd7fdcf4	-0.062466577
36	0xbe10c005	-0.1413575
37	0x3e84893b	0.2588595
38	0xbd05de1f	-0.032682534
39	0xbe17ddf6	-0.14830765
40	0x3d3c6cfc	0.046002373
41	0xbdb6e958	-0.089312255
42	0x3dd0b917	0.10191553
43	0xbbb62c75	-0.005559499
44	0xbd24108e	-0.04005485
45	0x3cdf7df8	0.027281746
46	0xbdb0a3a8	-0.08624965
47	0xbe155ca7	-0.14586125
48	0xbdea1633	-0.114300154
49	0xbd50931c	-0.050921544
50	0xbdffae62	-0.12484433
51	0xbda1427e	-0.078740105
52	0x3dfad87e	0.12248324
53	0x3e57bfd3	0.21069269
54	0x3e4098be	0.18808267
55	0x3df4eaa8	0.1195882
56	0xbd2f1cd1	-0.04275209
57	0x3d81c79d	0.06336901
58	0x3e09c82a	0.13455263
59	0xbe7a3471	-0.24434067
60	0xbe805bdf	-0.25070092
61	0x3c1c3ae5	0.009535526
62	0xbdeefc14	-0.11669174
63	0xbe43389a	-0.1906456
64	0xbd93a97f	-0.07210063
65	0xbda77db4	-0.08178273
66	0xbdb12a1b	-0.08650609
67	0xbe37f707	-0.17965327
68	0xbd0bf34f	-0.034167584
69	0xbdc1a54a	-0.094553545
70	0x3b4ec719	0.0031551777
71	0xbe383a43	-0.17990975
72	0xbe1c470a	-0.15261474
73	0xbdaedc03	-0.08538058
74	0xbe665425	-0.22493036
75	0x3e009850	0.12558103
76	0x3e386e0d	0.18010731
77	0x3d4d0e80	0.050062656
78	0xbd16fb75	-0.0368609
79	0x3e7f0509	0.24904265
80	0x3d614242	0.05499483
81	0x3d84141a	0.064491466
82	0xbe3ed5b2	-0.18636206
83	0x3de7e166	0.11322288
84	0xbee6e35d	-0.4509534
85	0x3e4550f8	0.19269168
86	0x3c57eec3	0.013179484
87	0x3e287afe	0.16453168
88	0x3d9e234a	0.077215746
89	0xbd8b83cd	-0.068122484
90	0xbdb9c77e	-0.09071253
91	0x3e0f6945	0.14005001
92	0x3d83deba	0.06438966
93	0x3c9d2ccb	0.019186398
94	0x3dca92af	0.09891259
95	0xbe2c7b42	-0.16843894
96	0xbe169013	-0.14703397
97	0x3c50da79	0.0127474
98	0x3e2decec	0.1698491
99	0xbe91a8c4	-0.2844907
100	0x3e8943e2	0.26809603
101	0x3dbf3ad0	0.093373895
102	0xbc7773f0	-0.015103325
103	0x3c8ac0fe	0.016937729
104	0xbe217697	-0.15767895
105	0xbd371336	-0.044696055
106	0xbddc4dfb	-0.10757061
107	0x3c4be407	0.012444503
108	0x3cb00a21	0.021489205
109	0x3e36c8ce	0.17850038
110	0x3e03f857	0.12887703
111	0x3d20d156	0.03926214
112	0xbdfb62b0	-0.122746825
113	0x3dbc54fe	0.091958985
114	0xbdd1d5bd	-0.102458455
115	0xbd7723c1	-0.060336832
116	0x3e89cdbf	0.26914784
117	0xbda5d272	-0.0809678
118	0x3d90ca19	0.07069797
119	0xbe2a447a	-0.16627684
120	0xbea53d27	-0.32273218
121	0xbe4a9f13	-0.19787244
122	0x3dfe8fff	0.12429809
123	0xbc867813	-0.016414678
124	0x3e1272e4	0.1430164
125	0xbcdf3ef3	-0.027251696
126	0x3d23a5ad	0.039952923
127	0xbd3ce7a8	-0.046119362
128	0xbe06792e	-0.13132164
129	0x3e69f284	0.22846419
130	0xbe058a20	-0.13040972
131	0xbe5b25a7	-0.21401082
132	0xbc5750ac	-0.013141792
133	0xbda0680e	-0.07832347
134	0x3db5ee10	0.088832974
135	0xbc17701b	-0.009243037
136	0x3d350fb7	0.04420444
137	0xbe7fd738	-0.24984443
138	0xbda43031	-0.08017004
139	0x3ca66357	0.02031104
140	0xbd46a0c3	-0.048493158
141	0x3a77d8c6	0.0009454604
142	0x3eaa3f99	0.33251646
143	0x3e80b920	0.2514124
144	0xbc035c7b	-0.0080176545
145	0xbd8b52d0	-0.068029046
146	0xbc9efe6a	-0.019408423
147	0xbcd807f9	-0.02637099
148	0xbe4519e6	-0.1924816
149	0x3dce3090	0.10067856
150	0x3e17f72d	0.14840384
151	0x3de77df1	0.11303318
152	0xbec3d6f0	-0.38249922
153	0xbe29351f	-0.1652417
154	0x3d25879f	0.04041254
155	0xbe30610a	-0.17224517
156	0x3e2f5636	0.1712273
157	0x3e3e64d6	0.18593153
158	0xbde5fd45	-0.11229948
159	0xbdab14c0	-0.08353567
160	0xbe731ebc	-0.23742193
161	0x3dd073a4	0.10178307
162	0xbe0fe119	-0.14050712
163	0xbca72d31	-0.020407291
164	0x3ca998e8	0.020702794
165	0x3e145b13	0.14487867
166	0xbdf098bf	-0.11747884
167	0xbca4143a	-0.020029176
168	0x3e095af4	0.13413602
169	0x3d61b2a2	0.055102
170	0x3e553ae2	0.20823243
171	0xbc9a54cb	-0.01883926
172	0x3e6c9e5c	0.23107284
173	0x3c5bc7b7	0.013414315
174	0xbdbf9696	-0.09354894
175	0xbd74a200	-0.059724808
176	0xbdff9437	-0.124794416
177	0x3e2f10e7	0.17096291
178	0xbd8316f6	-0.06400864
179	0x3cc498d2	0.023998652
180	0x3dac92a6	0.084264085
181	0x3d9ec934	0.0775322
182	0xbdb109fe	-0.08644484
183	0xbd31b43f	-0.043384787
184	0xbc33bbfc	-0.010970112
185	0xbd10f930	-0.035393894
186	0xbca73f0b	-0.020415803
187	0x3ca893b0	0.020578235
188	0xbecf251b	-0.40457997
189	0xbd1f7acd	-0.03893547
190	0xbc725086	-0.014789706
191	0x3cdf6116	0.027267974
192	0xbe41246a	-0.18861547
193	0xbe0e40cc	-0.13891906
194	0xbd2291df	-0.039689895
195	0xbdfa06fb	-0.12208363
196	0x3e2130a8	0.15741217
197	0xbae1da3c	-0.0017231177
198	0x3b8908c1	0.0041819518
199	0x3cfb7dcd	0.030699635
200	0x3d7779e2	0.06041897
201	0xbe7b3765	-0.2453285
202	0xbe0f39f4	-0.13986951
203	0xbe09daf8	-0.13462436
204	0xbce1c68e	-0.027560499
205	0x3d6f7bfb	0.058467846
206	0xbd265c07	-0.040615108
207	0x3d6ba311	0.05752856
208	0xbd4137b7	-0.047172274
209	0xbe2bcdbe	-0.16777703
210	0xbc76698f	-0.015039816
211	0x3bcc25c4	0.006230088
212	0x3ce45953	0.027874624
213	0x3d519258	0.051164955
214	0x3eb52610	0.35380602
215	0xbd86c971	-0.06581391
216	0xbe266c2e	-0.16252205
217	0xbe8034b3	-0.25040206
218	0xbd0fcd7f	-0.035108086
219	0xbe0745bd	-0.13210197
220	0xbc1225f0	-0.008920178
221	0x3e42e35c	0.19032043
222	0x3d01f8e0	0.031731486
223	0x3dcc44b8	0.099740446
224	0xbc5fb55d	-0.01365408
225	0x3eae4ea1	0.34044364
226	0xbd5e6f88	-0.054305583
227	0xbda16188	-0.07879931
228	0xbcf1f8e1	-0.02953762
229	0x3e2c2f31	0.16814877
230	0xbde564a8	-0.11200839
231	0xbdd19c16	-0.10234849
232	0xbddb338f	-0.107031934
233	0x3eb861b4	0.36012042
234	0x3bc7e132	0.0060998434
235	0xbe1f98f9	-0.15585698
236	0x3ca0dedd	0.01963752
237	0xbb5d694c	-0.0033784686
238	0xbd969380	-0.07352352
239	0x3e19374d	0.14962502
240	0xbcc5f729	-0.024165707
241	0xbde23eb7	-0.11047118
242	0xbe20cd1f	-0.15703247
243	0xbdcba55f	-0.099436514
244	0xbca4664d	-0.020068312
245	0x3e49ae82	0.19695476
246	0x3e0cff22	0.137692
247	0x3dc4ddf4	0.09612647
248	0x3e197a09	0.14987959
249	0x3c843d18	0.016142413
250	0xbb8b75d8	-0.0042559914
251	0x3e41726b	0.18891303
252	0x3e03fa4a	0.12888446
253	0xbd7599ee	-0.059961252
254	0xbddf8591	-0.10914148
255	0xbe44502c	-0.19171208

lstm.bias_ih_l1 f4 [256]
0	0xbb086c3a	-0.0020816461
1	0x3d6cc8cb	0.05780868
2	0x3c90faac	0.017697655
3	0xbcb88628	-0.022524908
4	0xbe52a831	-0.20571972
5	0x38519bc0	4.9974537e-05
6	0x3e1c3726	0.15255412
7	0x3b7f089f	0.003891505
8	0x3d7eb682	0.06218577
9	0x3d9a5fee	0.075378284
10	0x3c8dbd9e	0.01730233
11	0xbcfe51b0	-0.031044811
12	0xbe39b101	-0.18133928
13	0xbdaa86d7	-0.083265
14	0x3afc487e	0.0019247679
15	0xbe274fa9	-0.16338982
16	0xbd8a61b9	-0.0675692
17	0xbd42dd5d	-0.04757439
18	0x3c64bf29	0.013961592
19	0x3c4e3a0a	0.01258708
20	0x3bee30db	0.0072690076
21	0xbdf89738	-0.12138218
22	0x3e0a67d2	0.13516167
23	0x3d1e9bf7	0.03872296
24	0x3e1bd7c3	0.15219025
25	0x3d88a1f4	0.06671515
26	0xbcd13b0c	-0.025540851
27	0xbe26376b	-0.16232078
28	0x3dac6af0	0.08418834
29	0xbda8aa43	-0.082356
30	0xbde3b0a4	-0.11117676
31	0x3c60fc33	0.013732004
32	0x3cf69d00	0.03010416
33	0x3e4a93a3	0.19782881
34	0x3de4afe2	0.111663595
35	0x3d1d1807	0.038352992
36	0xbd907617	-0.07053774
37	0x3c71cedb	0.014758791
38	0xbd992d7d	-0.07479379
39	0xbdb596b3	-0.08866634
40	0xbd4bf0ac	-0.04979007
41	0x3c3e0022	0.011596711
42	0x3d4e987c	0.05043839
43	0xbe2829e1	-0.16422226
44	0x3d18e946	0.037331842
45	0xbcf7f396	-0.030267518
46	0x3ccd7ee9	0.02508493
47	0x3dd9fc57	0.10643833
48	0xbe3ebdc6	-0.1862708
49	0xbc556f87	-0.0130270785
50	0xbe2b21f4	-0.16712171
51	0xbba6d752	-0.005091586
52	0x3d9d2b0d	0.07674227
53	0x3b21e53c	0.0024703285
54	0xbdc833c8	-0.097755015
55	0x3ded0586	0.11573319
56	0x3dadb998	0.08482665
57	0xbd4f9f01	-0.050688747
58	0x3d61b852	0.055107422
59	0x3ca2f5c2	0.019892577
60	0x3e270859	0.16311778
61	0xbb29639e	-0.002584673
62	0xbdda3121	-0.10653902
63	0x3bedd57d	0.007258116
64	0xbd550ac5	-0.052012224
65	0x3e700a81	0.23441507
66	0x3c59a4bb	0.013283904
67	0x3d8abd41	0.067743786
68	0x3ca0752d	0.019587124
69	0xbd9af9d1	-0.0756718
70	0xbd0fe5b4	-0.03513117
71	0x3dccbc4f	0.099968545
72	0x3e46bce1	0.19407989
73	0xbb9b2d73	-0.0047356426
74	0xbda487f1	-0.08033741
75	0xbe090192	-0.13379505
76	0xbcc748c6	-0.024326693
77	0xbbbf4ba7	-0.005837876
78	0x3e41536e	0.18879482
79	0xbd3b8ff7	-0.045791592
80	0xbbc21f0e	-0.005924112
81	0x3d94ab8e	0.07259284
82	0x3e5e6443	0.21717934
83	0x3e2b8f8f	0.16753982
84	0x3cef2d45	0.02919639
85	0xbd3630a6	-0.04447999
86	0x3db9a6e2	0.090650335
87	0x3b57d4ce	0.0032933238
88	0x3e2e5d07	0.17027675
89	0x3e760cfe	0.24028394
90	0x3e46566a	0.19368902
91	0x3e1eda05	0.15512855
92	0xbb8183d3	-0.0039524822
93	0x3e08a403	0.13343816
94	0xbc8b7e35	-0.017027954
95	0x3da11365	0.07865027
96	0x3da33be0	0.079704046
97	0x3eb0793d	0.34467497
98	0xbd92d156	-0.07168834
99	0xbd18c18d	-0.03729396
100	0xbd15f6f9	-0.036612485
101	0x3bea56bc	0.007151453
102	0xbd4ffdb8	-0.050779074
103	0x3c02903d	0.007968959
104	0x3d5d3eb4	0.054014876
105	0x3dcb35ea	0.09922393
106	0x3dfd8417	0.1237871
107	0x3d6c47db	0.057685714
108	0xbd1723f6	-0.03689953
109	0x3ca4f6e5	0.02013726
110	0xbc3d845a	-0.0115672
111	0x3e5665b0	0.20937228
112	0x3d4d0165	0.050050158
113	0x3d379b00	0.044825554
114	0x3e3385fb	0.17531578
115	0xbd1b2542	-0.03787733
116	0x3aa9a826	0.0012943789
117	0xbc1daa35	-0.0096231
118	0xbd338c67	-0.04383507
119	0x3dfb9d1a	0.12285824
120	0x3dfed075	0.12442104
121	0x3e22b14b	0.15887944
122	0xbd832d51	-0.06405128
123	0xbdf76f47	-0.12081771
124	0xbda50868	-0.08058244
125	0x3d9827d3	0.07429471
126	0x3ce3e64b	0.027819773
127	0x3de7eb37	0.113241605
128	0x3d4d8267	0.05017319
129	0xbbb6347c	-0.005560456
130	0x3c3a8d66	0.011386251
131	0x3d863e09	0.06554801
132	0xbd046884	-0.032326236
133	0x3df6a948	0.120440066
134	0x3d94dd48	0.072687685
135	0xbd8413ed	-0.06449113
136	0x3d1a5a31	0.03768367
137	0xbd9b00b9	-0.07568497
138	0x3d849cde	0.064752325
139	0x3cfd4756	0.030917805
140	0xbdef08eb	-0.11671623
141	0xbb94cac0	-0.0045407712
142	0xbe0c98e3	-0.13730197
143	0xbd5d8dd9	-0.054090355
144	0xbdb6d5c9	-0.08927495
145	0x3d3c6c78	0.04600188
146	0xbc7913ac	-0.015202444
147	0xbc2f86a3	-0.010713252
148	0xbd8fc34e	-0.07019673
149	0x3d2e132c	0.042498752
150	0xbda719fe	-0.081592545
151	0xbe175a98	-0.14780653
152	0x3d83b4eb	0.06430992
153	0x3d30b175	0.043137986
154	0x3d48f18c	0.049058482
155	0x3da3131b	0.079626285
156	0xbd6146ee	-0.054999284
157	0x3d92e939	0.0717339
158	0x3d37b032	0.044845767
159	0xbd61d330	-0.055133045
160	0x3d9553a1	0.072913416
161	0xbd866a8f	-0.06563293
162	0x3c9dbe84	0.019255884
163	0xbd92d5ed	-0.07169709
164	0x3da8cd7c	0.08242318
165	0xbe005239	-0.12531365
166	0x3a8efab4	0.0010908456
167	0x3d99de88	0.075131476
168	0xbd81f4e3	-0.063455366
169	0xbdb2fc39	-0.08739514
170	0xbe27b222	-0.16376546
171	0xbd58b62c	-0.052908108
172	0xbb6e6d2f	-0.0036380996
173	0x3df1fc1e	0.11815666
174	0x3ae8c846	0.0017759881
175	0xbdda5c26	-0.10662107
176	0xbd54a9e4	-0.051919833
177	0xbd75cfe7	-0.060012724
178	0xbc4e04c1	-0.012574376
179	0xbe070203	-0.13184361
180	0x3c72d88f	0.014822139
181	0x3d916f1b	0.0710127
182	0x3db61813	0.088913105
183	0xbddf0fed	-0.108917095
184	0x3dabf119	0.08395595
185	0xbd77d4d8	-0.060505718
186	0xbd445393	-0.047931265
187	0x3cf1b93c	0.029507272
188	0x3cb49612	0.022044215
189	0xbdb140f9	-0.08654971
190	0xbda5c0c3	-0.08093407
191	0xbcd75455	-0.02628533
192	0x3d763e45	0.06011798
193	0x3d8331d9	0.06405992
194	0xbdf3a1ec	-0.118961185
195	0xbdb81a33	-0.08989372
196	0xbcb4ecef	-0.022085635
197	0xbcefeea5	-0.0292886
198	0xbbe2384a	-0.006903683
199	0x3d42cb9b	0.047557455
200	0x3dd1e1e4	0.10248163
201	0x3d364144	0.044495836
202	0x3dbb8a25	0.09157208
203	0xbe37bf11	-0.1794398
204	0xbe073d8e	-0.13207075
205	0x3d830a96	0.063985035
206	0x3e09adfe	0.13445279
207	0xbdc3fcfb	-0.095697366
208	0x3df12555	0.11774699
209	0xbd4ac6c1	-0.049505953
210	0x3ca3f2e9	0.02001329
211	0x3e013b24	0.12620217
212	0x3dc9bd98	0.09850615
213	0x3bfd61fb	0.0077326274
214	0x3e9b685d	0.3035306
215	0x3c49651c	0.012292173
216	0x3d681ce7	0.05666819
217	0x3d77635f	0.060397502
218	0x3c61e6a5	0.0137879
219	0x3bd962cf	0.0066340934
220	0x3ca34121	0.019928517
221	0xbd9c6c04	-0.0763779
222	0xbd1b1cd4	-0.03786929
223	0x3d948029	0.07251007
224	0xbd009ccd	-0.031399537
225	0x3e28c24d	0.1648037
226	0x3d0e7cef	0.034787115
227	0x3c2e1666	0.010625457
228	0xbcc821c4	-0.024430163
229	0x3cc78552	0.024355564
230	0xbe0036d5	-0.12520917
231	0xbdb404d7	-0.087899856
232	0x3db21817	0.08696001
233	0xbcb37a1e	-0.021908816
234	0x3e0aef3f	0.13567828
235	0xbd75ad6f	-0.059979852
236	0xbd8eabc5	-0.06966356
237	0x3cdf60cb	0.027267834
238	0xbc92e4c9	-0.017931359
239	0x3e3efb71	0.18650605
240	0xbe43a0e0	-0.19104338
241	0x3dedfe20	0.11620736
242	0xbdb84e48	-0.08999306
243	0x3cb68b26	0.022283148
244	0x3e036775	0.12832434
245	0x3e02fce3	0.12791781
246	0x3dc5b1c1	0.096530445
247	0x3cd7e62f	0.026354877
248	0xbc0a5e0e	-0.008445276
249	0xbdc2b4f1	-0.09507168
250	0x3cf3dec5	0.02976931
251	0x3be5f5a3	0.0070178076
252	0x3e615976	0.22006783
253	0xbc42c2f8	-0.0118873045
254	0x3cb1adcb	0.021689316
255	0x3cced556	0.02524821
